model_state_dict.pkl (torch, 285087 bytes, 6 tensors)

liner_1.weight f4 [256, 16]
0	0xbe88399c	-0.26606452
1	0x3d9aca7c	0.07558152
2	0xbe442b5e	-0.19157168
3	0xbc4ad192	-0.012379067
4	0x3baf7f6f	0.0053557674
5	0x3cbf5800	0.023357391
6	0x3e626f75	0.2211283
7	0xbcc1f634	-0.02367697
8	0xbe519ad9	-0.20469226
9	0xbd8f1406	-0.06986241
10	0xbddcb2d8	-0.10776299
11	0x3e1dcd99	0.1541046
12	0x3e37a127	0.17932568
13	0xbd967734	-0.07346955
14	0xbe8650fe	-0.26233667
15	0xbe4cf4e7	-0.20015298
16	0x3e63d400	0.2224884
17	0xbcc2aad0	-0.02376309
18	0x3d020414	0.03174217
19	0xbdd5182b	-0.10405
20	0x3e3eeab3	0.18644218
21	0xbe458482	-0.19288829
22	0x3d51a929	0.051186714
23	0xbbd9e1db	-0.0066492385
24	0xbe74ef71	-0.23919465
25	0x3d1c5326	0.038165234
26	0xbbfdd427	-0.007746238
27	0x3e7756f1	0.2415426
28	0x3e1c3dc2	0.15257934
29	0xbc32bd97	-0.01090946
30	0x3e0a8b3f	0.1352968
31	0xbda6062a	-0.081066445
32	0x3df905b7	0.12159293
33	0x3e42e19c	0.19031376
34	0xbd43fc35	-0.047847945
35	0x3c606df9	0.0136980945
36	0x3ddf096c	0.10890469
37	0xbe4b7ac6	-0.19871053
38	0x3e68ddfd	0.22740932
39	0x3da98afb	0.082784615
40	0xbe53d54d	-0.20686837
41	0xbe1d6029	-0.15368713
42	0xbdd87799	-0.105696864
43	0x3e21f71d	0.15816922
44	0xbdfcf0ef	-0.12350642
45	0xbe15fa69	-0.14646305
46	0xbd1f77de	-0.038932674
47	0x3e678e84	0.22612959
48	0xbd2c7730	-0.042105854
49	0xbc94d2bc	-0.018166892
50	0xbe1403a3	-0.14454512
51	0xbe01ec8d	-0.12687893
52	0xbe199c04	-0.15000921
53	0xbd59dd26	-0.05318942
54	0xbdbd9443	-0.09256794
55	0xbe0e8695	-0.13918526
56	0x3e736f26	0.23772869
57	0xbdc089b2	-0.09401263
58	0xbe413490	-0.18867707
59	0x3d184164	0.037171736
60	0x3e1ae453	0.15126161
61	0xbe438928	-0.1909529
62	0xbe483099	-0.19549789
63	0x3e5990f4	0.21246701
64	0x3ddb57c3	0.107100986
65	0x3e85a2d9	0.26100805
66	0x3e273730	0.16329646
67	0x3e32894a	0.17435184
68	0x3e0524fb	0.13002388
69	0x3e6a4320	0.22877169
70	0x3cdd016f	0.026978223
71	0xbdf25ffb	-0.11834713
72	0xbe5667fd	-0.20938106
73	0x3dea5e3e	0.114437565
74	0x3e07d29f	0.1326394
75	0xbe300a08	-0.17191327
76	0xbe668b4a	-0.22514072
77	0xbd81269c	-0.06306192
78	0xbe5a658c	-0.213278
79	0xbb4259bb	-0.0029655534
80	0x3e3c0bec	0.18363923
81	0x3d31433d	0.043277014
82	0x3e2369b9	0.15958299
83	0x3e781487	0.2422658
84	0x3dac81ec	0.08423218
85	0xbd99ef33	-0.07516327
86	0xbd77c909	-0.060494456
87	0x3e37bae6	0.1794239
88	0x3e6020ff	0.21887587
89	0xbe617b7a	-0.22019759
90	0xbe7f2bba	-0.24919024
91	0x3e16607c	0.14685243
92	0x3d0e1c9d	0.034695257
93	0xbdabd103	-0.08389475
94	0x3e17d39f	0.14826821
95	0xbda894c7	-0.08231502
96	0x3e1061d4	0.14099818
97	0x3e6b84a5	0.22999819
98	0x3d681764	0.056662932
99	0x3e67c44e	0.22633478
100	0xbdd07492	-0.10178484
101	0x3e547b44	0.20750147
102	0xbd38b284	-0.04509212
103	0xbe4be4c9	-0.19911493
104	0xbe5702ad	-0.20997114
105	0x3dabb4ac	0.0838407
106	0x3e124f46	0.14288053
107	0xbd71d425	-0.059040207
108	0xbc7ff0e2	-0.015621396
109	0x3e56a395	0.20960839
110	0xbe2e96bd	-0.1704969
111	0x3dac0359	0.08399076
112	0xbdba8287	-0.09106927
113	0xbdb88636	-0.09009974
114	0x3df0647e	0.11737917
115	0xbb30d64e	-0.0026983204
116	0xbe5d3842	-0.21603492
117	0x3e128e54	0.14312106
118	0x3df5876d	0.11988721
119	0x3e075c2a	0.13218752
120	0x3e6803a5	0.2265764
121	0xbddde246	-0.10834174
122	0x3d908aeb	0.070577465
123	0x3cafecd9	0.021475242
124	0x3d8d18f9	0.06889529
125	0xbe67b302	-0.2262688
126	0xbccb3fc3	-0.024810677
127	0xbc9f2296	-0.019425672
128	0xbc4ef507	-0.012631661
129	0xbe2c366d	-0.16817637
130	0xbe90e628	-0.28300595
131	0xbd4cd3e7	-0.050006773
132	0x3e25e536	0.16200718
133	0x3d03c4a2	0.032169946
134	0x3e21523c	0.15754026
135	0x3e2f3cca	0.17113033
136	0xbdc721aa	-0.09723218
137	0xbe758313	-0.23975782
138	0xbda73e99	-0.081662364
139	0x3acf01a9	0.0015793341
140	0x3e49d7ed	0.19711275
141	0x3e364a15	0.17801698
142	0x3d9ecce8	0.077539265
143	0xbe7ff3d3	-0.24995355
144	0x3ce45818	0.027874038
145	0x3d2f6b8f	0.042827185
146	0x3dab893b	0.08375784
147	0x3e0d6227	0.13806973
148	0xbe663227	-0.22480069
149	0x3d2b03db	0.041751724
150	0x3e103d76	0.14085945
151	0xbdf69f03	-0.12042048
152	0x3d9f7c05	0.07787327
153	0xbe639d84	-0.22228056
154	0xbe1f532d	-0.15559073
155	0xbd941e69	-0.07232363
156	0xbda0c6cb	-0.07850417
157	0xbe65a19b	-0.22424929
158	0xbe12eb59	-0.1434759
159	0x3e1ebae8	0.15500987
160	0x3cf7fc8c	0.03027179
161	0x3e1b17e2	0.1514583
162	0xbe359877	-0.17733942
163	0xbdc911f5	-0.09817878
164	0xbe4aacc6	-0.1979247
165	0xbd8c3de5	-0.06847743
166	0x3e6d77a0	0.23190165
167	0x3e097320	0.13422823
168	0xbc68ee2f	-0.014216944
169	0x3e2a5cbc	0.16636938
170	0xbe646415	-0.22303803
171	0xb841028b	-4.6017154e-05
172	0x3c097cd7	0.008391581
173	0x3de6e3c2	0.1127391
174	0x3e67b32a	0.2262694
175	0xbe486445	-0.195695
176	0xbde5caa1	-0.11220289
177	0xbe24755e	-0.16060397
178	0xbe4386dd	-0.19094415
179	0x3e433096	0.19061503
180	0xbdbfb231	-0.09360159
181	0xbdeeef4f	-0.11666738
182	0x3df29be8	0.11846143
183	0x3e181ee6	0.14855537
184	0x3d0ab0f6	0.03386017
185	0x3dffc576	0.124888346
186	0x3e2337b9	0.15939225
187	0x3d7efb50	0.06225139
188	0xbdd13a06	-0.10216145
189	0xbe579a0f	-0.21054862
190	0xbde48e7d	-0.1115999
191	0xbe82497d	-0.25446692
192	0x3e11f952	0.14255264
193	0x3e12d1a5	0.14337786
194	0xbe4bf055	-0.19915898
195	0xbd045f7d	-0.032317627
196	0xbd7f71e4	-0.062364474
197	0xbc9812c8	-0.018563643
198	0x3dc4c16a	0.09607203
199	0xbe594bc8	-0.21220315
200	0x3e3ba6b4	0.18325311
201	0xbdec72e7	-0.115453534
202	0x3d8195b5	0.063273825
203	0xbd80cdaa	-0.06289227
204	0xbe0567ea	-0.13027921
205	0xbdecf4cb	-0.11570128
206	0x3e374aec	0.17899674
207	0xbbd3b22f	-0.00646045
208	0x3e74515a	0.23859158
209	0xbdfd6ebe	-0.12374638
210	0xbe853177	-0.260143
211	0xbe75f7ce	-0.24020311
212	0x3c29258a	0.010323891
213	0x3e57725c	0.21039718
214	0xbd2c5d69	-0.04208127
215	0xbe5a0bf8	-0.21293628
216	0x3e418fad	0.18902464
217	0x3e745592	0.23860767
218	0xbe2c3f40	-0.16821003
219	0xbd9eca59	-0.077534385
220	0xbb822f54	-0.003972927
221	0x3d9fccb6	0.078027174
222	0x3e23f6c1	0.16012098
223	0x3e582ed1	0.21111609
224	0xbddc6021	-0.10760523
225	0xbe723ae1	-0.23655273
226	0x3d2550fd	0.04036044
227	0xbd9da884	-0.076981574
228	0xbe5dc78f	-0.21658157
229	0xbdd9727f	-0.106175415
230	0x3c1cac24	0.009562526
231	0xbe0293e7	-0.12751733
232	0xbe352fcb	-0.17694013
233	0x3de83e0e	0.11339961
234	0xbd8632b8	-0.065526426
235	0x3e407000	0.18792725
236	0x3e0b0ad4	0.1357835
237	0xbe450e1d	-0.19243665
238	0xbcc9797f	-0.024594067
239	0xbea62917	-0.32453224
240	0x3dd614b8	0.104531705
241	0xbe636908	-0.22208035
242	0xbe2cf5bc	-0.16890615
243	0xbcdb8af6	-0.02679966
244	0x3e0dd75e	0.13851687
245	0xbe5753c1	-0.21028043
246	0x3da85635	0.08219568
247	0xbd32041b	-0.043460947
248	0xbe6a5b30	-0.22886348
249	0xbd3b3a24	-0.045709744
250	0xbe7bdf34	-0.24596864
251	0xbe720971	-0.23636414
252	0xbd9b709e	-0.075898394
253	0x3d0ccefa	0.034377076
254	0xbe2afd08	-0.16698086
255	0xbe493433	-0.19648819

liner_1.bias f4 [256]
0	0xbbbbe420	-0.0057339817
1	0x3e34abd5	0.17643674
2	0x3e5c5447	0.21516524
3	0x3e2a6b43	0.1664248
4	0x3e21d046	0.15802106
5	0x3e253cc3	0.1613646
6	0x3d70f605	0.058828373
7	0xbdb90a49	-0.09035165
8	0xbe60e76c	-0.2196328
9	0xbdbe8f77	-0.093047075
10	0xbe139b4c	-0.1441471
11	0x3cb9743c	0.022638433
12	0x3e81c1bd	0.25343123
13	0xbcb49bbf	-0.022046922
14	0x3d155b0c	0.036463782
15	0x3da69b1a	0.08135052
16	0xbe284a25	-0.16434534
17	0xbe27a0ee	-0.16369984
18	0xbe468366	-0.19386062
19	0x3e88f499	0.26749113
20	0x3deec0ea	0.11657889
21	0x3db4af05	0.08822445
22	0xbd819471	-0.06327141
23	0xbe3b4409	-0.18287672
24	0xbdaebf18	-0.08532542
25	0xbdf400cb	-0.11914214
26	0xbb9461ec	-0.0045282748
27	0x3cf2a8d8	0.029621527
28	0xbc6b2536	-0.0143521335
29	0x3e6e341d	0.23262067
30	0x3e6b58f5	0.22983153
31	0x3e1ad490	0.15120149
32	0xbd8d8af4	-0.06911269
33	0xbc9d2b1f	-0.0191856
34	0xbdabca42	-0.08388187
35	0xbe33d4f0	-0.17561698
36	0x3e083135	0.13300021
37	0xbc97fd1f	-0.018553315
38	0x3e7cbab1	0.24680592
39	0x3da78bca	0.081809595
40	0x3e5f72f6	0.21821198
41	0x3d81ce51	0.0633818
42	0xbe17f6ff	-0.14840315
43	0x3e382c6d	0.17985697
44	0xbba81c1b	-0.0051303036
45	0xbde821a0	-0.113345385
46	0xbdb5fc14	-0.08885971
47	0xbe187c61	-0.14891197
48	0xbe104f86	-0.14092836
49	0x3881f0d7	6.196059e-05
50	0xbe0e44a6	-0.13893375
51	0x3e608d68	0.21928942
52	0xbe720b52	-0.23637131
53	0xbc2e186e	-0.010625942
54	0xbd3044ce	-0.043034367
55	0x3e51527b	0.2044162
56	0x3d2a6eb8	0.041609496
57	0x3e527f95	0.20556481
58	0x3cdadb2d	0.02671584
59	0xbdbdf7f4	-0.09275809
60	0x3e08f050	0.13372922
61	0xbdffffde	-0.12499975
62	0x3e326817	0.1742252
63	0x3decb08e	0.11557113
64	0x3e53e4ff	0.20692824
65	0x3e250aeb	0.16117446
66	0x3cb39bc9	0.02192487
67	0xbd46aacb	-0.048502725
68	0x3e1922d0	0.14954686
69	0x3e76420d	0.24048634
70	0xbe23ef98	-0.16009367
71	0x3db083b7	0.086188726
72	0xbd18ad27	-0.037274506
73	0xbe24522c	-0.16046971
74	0xbe5fad99	-0.21843566
75	0xbe3d1f0a	-0.18468872
76	0xbd4a3813	-0.049369883
77	0x3c81682c	0.015796743
78	0x3da1c303	0.07898524
79	0x3e67f0e1	0.22650482
80	0x3db69aaf	0.08916222
81	0xbe2ecb2f	-0.17069696
82	0x3c656c71	0.014002905
83	0xbe47f65d	-0.19527574
84	0x3de866fc	0.11347768
85	0x3dafeb37	0.085897855
86	0xbdf46803	-0.11933901
87	0x3d3c68af	0.04599827
88	0x3d756d75	0.05991884
89	0x3e741445	0.23835857
90	0xbe2950e6	-0.16534767
91	0xbe6df610	-0.23238397
92	0x3db9fb53	0.090811394
93	0x3db19fe0	0.08673072
94	0x3e0af166	0.13568649
95	0x3d2c3cba	0.0420501
96	0x3de8c5b7	0.11365836
97	0xbc86957e	-0.016428705
98	0x3e1add08	0.15123379
99	0x3d9a8974	0.07545748
100	0xbe0be1fe	-0.13660428
101	0x3d8ece2c	0.06972918
102	0x3d627bd8	0.055293888
103	0xbe0f59bc	-0.13999075
104	0xbd9c42f2	-0.07629956
105	0xbdcafbd4	-0.09911314
106	0x3de02c7a	0.10945983
107	0xbd2edd83	-0.04269172
108	0xbd190aa1	-0.037363652
109	0xbba5df3d	-0.0050620125
110	0x3e7ae3d3	0.2450097
111	0xbda4e22d	-0.08050952
112	0x3da04891	0.07826341
113	0x3d6dab40	0.058024645
114	0x3d94122a	0.07230027
115	0x3d47fbfe	0.048824303
116	0xbe4e8fb9	-0.20172013
117	0x3e7a7753	0.24459581
118	0xbe1a7224	-0.15082604
119	0x3e728421	0.23683216
120	0x3e28097e	0.16409871
121	0x3e5d3ac3	0.21604447
122	0xbe0ae1c9	-0.13562693
123	0x3d9c0cda	0.07619639
124	0x3e6750e5	0.22589453
125	0xbe32fb2b	-0.17478625
126	0xbe47b1a5	-0.1950136
127	0x3e389c86	0.18028459
128	0x3e8b0cc1	0.27158168
129	0x3d5a635b	0.05331741
130	0xbdc375bf	-0.09543943
131	0xbe1ace01	-0.15117647
132	0x3e04433a	0.1291627
133	0xbc9c59c4	-0.019085772
134	0xbde839dc	-0.11339161
135	0x3e029677	0.1275271
136	0x3e420f49	0.18951143
137	0x3d0f6fe4	0.035018817
138	0xbe8821d6	-0.26588315
139	0x3abb633e	0.0014296544
140	0x3dcd83b4	0.10034886
141	0x3e7b88b5	0.24563868
142	0x3dd78b20	0.10524583
143	0x3de36ef2	0.111051455
144	0xbd10d1d5	-0.03535636
145	0x3e64a099	0.22326888
146	0xbdf6b90e	-0.12047015
147	0x3e705879	0.2347125
148	0xbe2f16db	-0.17098562
149	0x3e803844	0.25042927
150	0xbd5d8d11	-0.05408961
151	0xbe443d04	-0.191639
152	0x3cad2cd5	0.021139542
153	0xbe13d0e8	-0.1443516
154	0x3dcae9d4	0.099078804
155	0xbe64fd0b	-0.22362153
156	0x3dea5798	0.114424884
157	0x3bc24689	0.0059288186
158	0x3d9914ce	0.07474671
159	0x3d45f494	0.04832895
160	0x3e8304d5	0.25589624
161	0xbde0601a	-0.1095583
162	0xbe73ab3b	-0.23795788
163	0xbde9c870	-0.114151835
164	0x3dee6824	0.11640957
165	0x3e839b97	0.25704643
166	0x3e436421	0.19081165
167	0xbe23d376	-0.15998635
168	0x3e29bfb7	0.1657704
169	0xbaa10b27	-0.0012286649
170	0xbe08754d	-0.13325997
171	0xbe55f66a	-0.20894781
172	0x3c46cd7a	0.01213395
173	0x3e6fecb4	0.23430139
174	0x3e2cae6d	0.16863413
175	0x3e5600df	0.2089877
176	0x3e46226f	0.19349073
177	0xbcec9fc1	-0.02888477
178	0x3de5aa16	0.11214082
179	0xbda87524	-0.08225468
180	0x3e274e26	0.16338405
181	0x3e114489	0.141863
182	0xbe5f5196	-0.21808466
183	0x3dd427c8	0.1035915
184	0xbe71bf1c	-0.23608059
185	0xbd0accf0	-0.03388685
186	0x3db22dc8	0.08700138
187	0xbe3422c3	-0.17591386
188	0x3e65d5c1	0.22444822
189	0x3d2194fd	0.039448727
190	0x3d934b26	0.07192068
191	0xbe547c62	-0.20750573
192	0xbe4d605f	-0.20056294
193	0xbdada87f	-0.08479404
194	0x3e476ac4	0.19474322
195	0x3e28f535	0.16499789
196	0x3dada7e6	0.0847929
197	0x3e047e6b	0.1293885
198	0x3d23c52e	0.039982967
199	0x3e1768b5	0.14786036
200	0x3e858a1f	0.2608194
201	0x3d37a43c	0.04483436
202	0xbe48315a	-0.19550076
203	0xbcea8e3c	-0.028632276
204	0x3e4fdeb6	0.20299801
205	0xbe04f51b	-0.12984125
206	0x3e1cd876	0.15316948
207	0xbdfa8241	-0.12231875
208	0xbd80b68a	-0.062848166
209	0xbdbe39d6	-0.09288375
210	0x3cb9f692	0.022700582
211	0xbd626b74	-0.055278257
212	0x3c82f5ab	0.015986284
213	0xbd444793	-0.04791982
214	0x3d4e63dd	0.050388206
215	0xbdf33b07	-0.11876493
216	0xbe18e2ba	-0.1493024
217	0xbe7a3d2c	-0.24437398
218	0x3d146ec4	0.036238447
219	0xbd6b3c61	-0.05743063
220	0xbe07cbfe	-0.1326141
221	0x3e294706	0.16531
222	0x3e6f03d1	0.233413
223	0xbe5c6cf7	-0.21525942
224	0x3dc6f8bc	0.09715411
225	0xbdc09c13	-0.09404769
226	0x3e58141f	0.21101426
227	0xbcbce4ad	-0.02305826
228	0x3e43a26f	0.19104932
229	0x3c8cf863	0.017208284
230	0x3d53cba3	0.051707875
231	0xbc6562ef	-0.014000638
232	0x3d0c72c1	0.034289125
233	0x3cf7e602	0.030261043
234	0x3d5e8b9b	0.054332357
235	0x3e381018	0.1797489
236	0x3e20eada	0.15714589
237	0xbd225edf	-0.039641257
238	0x3b93980f	0.004504211
239	0x3e03baff	0.12864302
240	0x3b9ca117	0.0047799456
241	0x3e787f90	0.24267411
242	0x3e59f4c0	0.21284771
243	0x3e548b83	0.20756344
244	0x3e46bff1	0.19409157
245	0xbb94caf1	-0.004540794
246	0xbe4d5a7f	-0.20054053
247	0x3d4746a0	0.048651338
248	0x3e8d787d	0.27630988
249	0xbde607bd	-0.11231945
250	0xbe0da674	-0.13833028
251	0x3e526858	0.20547616
252	0x3cf99566	0.030466747
253	0x3cbf5d9b	0.023360064
254	0x3e2aacee	0.1666753
255	0x3d993de7	0.0748251

liner_2.weight f4 [256, 256]
0	0xbd49ee10	-0.0492993
1	0x3d0ed52f	0.034871276
2	0xbcaea245	-0.02131761
3	0x3c5f4e95	0.013629575
4	0xbd7e0540	-0.062016726
5	0xbc960dd8	-0.018317148
6	0xbc58b913	-0.013227719
7	0xbd55721f	-0.052110787
8	0xbcd9b42a	-0.026575167
9	0x3d21db0e	0.039515547
10	0xb9ea018b	-0.00044633108
11	0xbd04f42f	-0.032459434
12	0x3d4b79d1	0.04967672
13	0xbbc5e8f9	-0.0060397354
14	0x3c1f9c59	0.009741866
15	0xbd16ba48	-0.036798745
16	0xbcbec2a5	-0.023286173
17	0xbcada495	-0.021196643
18	0xbd140a2e	-0.03614252
19	0x3da6da54	0.081471115
20	0xbca9bacd	-0.020718956
21	0xbd1d5739	-0.03841326
22	0xbc0a2c77	-0.008433453
23	0xbd829f01	-0.06377984
24	0xbd93250f	-0.07184803
25	0x3d87ecfc	0.06636998
26	0xbd349218	-0.04408464
27	0x3d89e751	0.06733573
28	0xbc8c6c17	-0.017141385
29	0x3bf7c220	0.0075609833
30	0x3c67f9db	0.014158691
31	0xbcfdc0ff	-0.030975817
32	0x3d1b9b2d	0.037989784
33	0xbc6c3a88	-0.014418252
34	0x3dfeae79	0.12435622
35	0x3ce9dbd8	0.028547212
36	0xbcd8984c	-0.026439808
37	0x3d3abcf4	0.045590356
38	0xbcc59efc	-0.024123661
39	0xbc96e7f0	-0.018421143
40	0x3d36e25f	0.044649478
41	0x3c8e315a	0.017357517
42	0x3caaa491	0.020830425
43	0xbd0c12f1	-0.03419775
44	0xbd4a0494	-0.049320772
45	0x3a1ad4b5	0.00059063296
46	0xbd2dff58	-0.042479843
47	0x3c1c2a0f	0.009531512
48	0xbbe85770	-0.0070905015
49	0xbbe94de1	-0.0071198796
50	0xbd2a112a	-0.041520275
51	0xbdd2a7a9	-0.10285885
52	0xbc9f661b	-0.019457867
53	0xbd37f7c0	-0.044914007
54	0x3c7f93f3	0.015599239
55	0xbd7df31d	-0.06199943
56	0xbb983094	-0.004644463
57	0x3d098388	0.033572704
58	0xba97e43f	-0.0011588408
59	0x3da59d79	0.08086676
60	0x3d5a44f2	0.053288408
61	0xbd38f35f	-0.04515397
62	0x3d297c5a	0.041378357
63	0xbc31c683	-0.010850552
64	0x3dabe8e3	0.08394029
65	0x3cfa3e73	0.030547356
66	0xbc2da831	-0.010599182
67	0xbd6d482d	-0.05793016
68	0xbc3d2d40	-0.011546433
69	0xbc5f658f	-0.013635053
70	0x3b7c470f	0.0038494503
71	0x3c1a0e60	0.009402841
72	0xbd34aa9f	-0.04410803
73	0xbd902d44	-0.07039884
74	0xbcee7514	-0.029108562
75	0x3d2931e5	0.04130735
76	0x3d759507	0.059956577
77	0xbca845e9	-0.020541148
78	0x3b51c9b3	0.0032011091
79	0x3c8e78f4	0.01739166
80	0xbd22fc8b	-0.039791625
81	0x3cce0419	0.025148438
82	0xbd14cf5c	-0.036330566
83	0xbceda078	-0.029007182
84	0xbdd1baa4	-0.10240677
85	0x3d87b103	0.06625559
86	0x3c9a2459	0.01881616
87	0xbcfdef12	-0.030997787
88	0xbdb9bc25	-0.09069089
89	0xbc4d1ac4	-0.012518588
90	0xbd5897e1	-0.052879218
91	0xbd4de397	-0.050265875
92	0x3d29d84f	0.041466054
93	0x3d6f88ad	0.058479954
94	0x3d83b76f	0.064314716
95	0x3c902da3	0.017599886
96	0x3d3055e1	0.04305065
97	0x3ca2bdd3	0.019865906
98	0xbd325a0d	-0.04354291
99	0x3d60a01f	0.054840203
100	0xbbfd3633	-0.0077274083
101	0xbdc02f33	-0.093840025
102	0xbd024149	-0.031800542
103	0xbc67e51b	-0.014153744
104	0xbd27a0a5	-0.040924687
105	0x3d454c24	0.048168316
106	0x3c083448	0.008313246
107	0x3cfa1d74	0.030531622
108	0xbccc360a	-0.024928112
109	0xbd0d6ca3	-0.034527432
110	0xbdcc070b	-0.09962281
111	0x3c8ff063	0.01757068
112	0xbd2776f0	-0.040884912
113	0x3c52c787	0.012864954
114	0x3c2b689b	0.010461952
115	0x3cdce70a	0.026965637
116	0x3b2c904f	0.0026331132
117	0x3cc8a380	0.024492025
118	0x3d4b8a04	0.04969217
119	0x390e23a7	0.00013555457
120	0xbc45218b	-0.012031923
121	0x3a6a779f	0.00089442165
122	0xbcb34f46	-0.021888386
123	0xbcdd5e01	-0.027022364
124	0xbc668965	-0.014070843
125	0x3c4e6333	0.012596893
126	0xbd4663ff	-0.048435207
127	0x3d2bb7ea	0.04192344
128	0xbc574493	-0.013138908
129	0xbb41cccc	-0.0029571531
130	0xbbaaac0b	-0.0052084974
131	0xbb89c42e	-0.0042042946
132	0xbd55ada6	-0.052167557
133	0xbd8b81cc	-0.06811866
134	0x3cde039e	0.027101334
135	0xbccdfa3f	-0.02514374
136	0xbd6e581f	-0.058189508
137	0xbcc0c953	-0.023533499
138	0x3c9e715b	0.019341161
139	0x3d4d7833	0.05016346
140	0xbc36a49b	-0.011147643
141	0xbcbd90cb	-0.023140332
142	0xbd56e804	-0.05246736
143	0x3d8dcc53	0.069237374
144	0x3d0a4737	0.033759322
145	0x38d15328	9.981386e-05
146	0xbcc599c7	-0.024121178
147	0x3d7ee3b6	0.06222888
148	0x3d5b33ba	0.053516127
149	0xbc26056f	-0.010133131
150	0x3db82af8	0.08992571
151	0x3cb13096	0.021629613
152	0xbd97d1c2	-0.07413055
153	0xbdcf0ba7	-0.101096444
154	0x3d1d1c23	0.03835691
155	0x3cfe8aa1	0.031071963
156	0x3c41b4e1	0.01182291
157	0xbc0683d9	-0.008210146
158	0x3d650544	0.055913225
159	0x3d1c92ce	0.03822594
160	0xba3aa357	-0.00071196764
161	0xbc3c3600	-0.011487484
162	0x3caed8b7	0.021343572
163	0x3bfb871b	0.007676018
164	0xbcdddc9a	-0.02708273
165	0x3ca7bfed	0.02047726
166	0xbd0539fe	-0.03252601
167	0xbd9f37c6	-0.0777431
168	0xbca08e3b	-0.01959907
169	0xbd454949	-0.048165593
170	0xbc69a195	-0.014259716
171	0xbbe33c3d	-0.006934671
172	0xbd07421c	-0.03302203
173	0xbc6e7424	-0.014554057
174	0xba794313	-0.0009508591
175	0x3c9309e3	0.01794905
176	0x3d1c624f	0.038179692
177	0x3c6e0349	0.01452715
178	0xbdb1bc30	-0.08678472
179	0xbb905a2b	-0.00440528
180	0x3d5f11f8	0.054460496
181	0xbb16228d	-0.0022908777
182	0xbd02c950	-0.031930268
183	0x3bb4d091	0.005518027
184	0x3cdb0a2e	0.026738252
185	0xbd6a3dfb	-0.057188015
186	0x3cd3485e	0.025791343
187	0xbd1ab1f9	-0.037767384
188	0x3cd2e472	0.025743697
189	0xbc2c4a29	-0.010515728
190	0xbd2983b8	-0.041385382
191	0x3d205618	0.039144605
192	0x3c804fec	0.01566311
193	0xbbee07ba	-0.0072641047
194	0xbd3cb004	-0.0460663
195	0xbdb09e5e	-0.08623956
196	0x3d029d03	0.03188802
197	0xbd67136b	-0.056415003
198	0xbb98239c	-0.004642917
199	0xbd0ae0c7	-0.03390577
200	0x3dbf6534	0.09345475
201	0xbc0b6410	-0.0085077435
202	0xbd961c64	-0.07329634
203	0xbc8c476b	-0.017123898
204	0x3d1a59a7	0.037683155
205	0xb8f63d32	-0.000117415926
206	0x3cf5fa49	0.030026572
207	0xbc53b4af	-0.012921496
208	0x3cd9ebd7	0.026601715
209	0x3bdb784c	0.00669769
210	0xbd0c13c4	-0.034198537
211	0xbc95b6ad	-0.018275583
212	0x3d72b5fe	0.059255593
213	0xbb34382f	-0.0027499308
214	0xbd30024f	-0.04297095
215	0xbd6d18f6	-0.057885133
216	0xbc7d4b81	-0.015459896
217	0x3d443238	0.047899455
218	0xbd24f6fb	-0.0402746
219	0x3d1ee6db	0.03879438
220	0x3c2c0136	0.010498336
221	0x388c00b6	6.675853e-05
222	0xbd014d5b	-0.031567913
223	0x3d34e596	0.044164263
224	0x3cb63bf7	0.02224539
225	0x3c21170e	0.009832157
226	0xbcb07bef	-0.021543471
227	0x3d1487dc	0.036262378
228	0xbd70a605	-0.05875208
229	0xbc8f2a08	-0.017476097
230	0xbd558286	-0.05212643
231	0x3c8a7ff7	0.016906722
232	0x3dc8e688	0.09809595
233	0x3c4dee33	0.012568998
234	0x3d3a0a5e	0.045420043
235	0xbd52d614	-0.051473692
236	0xbc89069d	-0.016726786
237	0xbda1cde8	-0.079006016
238	0xbd823f29	-0.06359703
239	0x3da9d5b9	0.082927175
240	0x3d363a19	0.044489
241	0xbd42b6d5	-0.047537643
242	0x3d2dca75	0.042429406
243	0xbd15657f	-0.036473747
244	0xbca1345d	-0.01967829
245	0xbb3f7285	-0.0029212546
246	0x3d27ae7d	0.04093789
247	0xbc8d1218	-0.017220542
248	0x3cef5db0	0.029219478
249	0x3d5abebf	0.053404566
250	0xbced3b2c	-0.02895888
251	0x3c89a7a6	0.016803574
252	0x3ca0bda4	0.019621678
253	0xbd131db4	-0.035917
254	0x3d498e39	0.0492079
255	0x3ce34f05	0.02774764

liner_2.bias f4 [256]
0	0x3cd97040	0.026542783
1	0xbd1ff900	-0.039055824
2	0x3d222d18	0.039593786
3	0x3cc79aa6	0.024365734
4	0xbd4eefed	-0.05052178
5	0x3c40e257	0.011772714
6	0xbcfe5b51	-0.031049402
7	0x3b4f5a61	0.0031639563
8	0x3d400ee5	0.046889205
9	0xbc7d1292	-0.015446322
10	0xbd28b8b2	-0.041191764
11	0x3cb20640	0.021731496
12	0xbc56bade	-0.013106076
13	0x3a91f243	0.0011134822
14	0x3d5b0b6f	0.0534777
15	0x3d078d4d	0.03309374
16	0xbd45479e	-0.048164003
17	0x3d603dfc	0.054746613
18	0xbc8009e2	-0.015629712
19	0xbca03c07	-0.019559873
20	0x3d0c2398	0.034213632
21	0xbd108253	-0.035280537
22	0xbb84bc04	-0.0040507335
23	0xbbcfe88f	-0.006344862
24	0xbd77384e	-0.06035643
25	0xbbad622e	-0.005291245
26	0x3d2076bc	0.039175734
27	0x3c01000d	0.007873547
28	0xbd1cc956	-0.038277946
29	0x3d0b8be3	0.034068953
30	0xbd3d1388	-0.046161205
31	0xbcf23329	-0.02956541
32	0xbc98e036	-0.0186616
33	0x3d628544	0.055302873
34	0x3d17e0e0	0.037079692
35	0x3c6e50b7	0.014545611
36	0xbb4eba31	-0.0031544084
37	0x3d70beb4	0.05877562
38	0x3d000d58	0.031262726
39	0x3c9df470	0.019281596
40	0x3cda9d12	0.026686225
41	0xbc88d978	-0.01670526
42	0x3d7a509e	0.06111204
43	0xbd5d1a7c	-0.053980336
44	0xbcca4010	-0.02468875
45	0x3d2e8844	0.04261042
46	0x3cf488f3	0.029850459
47	0x3c0a8878	0.008455388
48	0xbbbfa56d	-0.0058485777
49	0x3ca21bb0	0.019788593
50	0x3d590dab	0.05299155
51	0x3d1675ab	0.03673331
52	0x3d406ee5	0.046980757
53	0x3c79197b	0.015203829
54	0xbd218a93	-0.039438795
55	0xbc98b740	-0.018642068
56	0x3d01cc2f	0.031688865
57	0xbc9d3fd0	-0.019195467
58	0xbd1d52ce	-0.038409047
59	0xbd34351b	-0.043995958
60	0xbd27a801	-0.040931705
61	0xbab35ebb	-0.0013684848
62	0x3c34eea1	0.011043222
63	0x3d5f6bdc	0.054546222
64	0x3d7d7e83	0.06188823
65	0x3d87c9d8	0.066302955
66	0x3d1ca494	0.03824289
67	0xbb6bc68f	-0.0035976504
68	0xbd2b80f3	-0.041871022
69	0x3d885870	0.06657493
70	0x3d011714	0.03151615
71	0x3c9d64d2	0.019213114
72	0xbcb34835	-0.021885017
73	0xbb88c639	-0.0041740206
74	0x3c402bdc	0.011729207
75	0x3c8eccb8	0.017431602
76	0xbc1f8f1a	-0.009738708
77	0x3d13a48e	0.036045603
78	0x3d49337e	0.049121372
79	0x3ccdbd9b	0.025114825
80	0x3bfe597d	0.0077621327
81	0x3d155853	0.036461186
82	0x3d6d35dc	0.057912692
83	0x3c26876c	0.010164123
84	0x3d0e3017	0.03471383
85	0xbcb26fa8	-0.021781757
86	0x3b5482e0	0.003242664
87	0xbc59733b	-0.013272102
88	0x3cf4a9a7	0.029866053
89	0xbb77e430	-0.003782522
90	0xbd003e53	-0.031309437
91	0xbb9c15dc	-0.004763348
92	0xbbb1de6e	-0.005428127
93	0x3c6042b9	0.013687783
94	0x3d30f1f4	0.043199494
95	0x3bd42ce7	0.0064750793
96	0x3d801e8b	0.062558256
97	0x3d5f1b01	0.054469112
98	0x3d07b292	0.033129282
99	0x3da71f73	0.08160295
100	0xbd0bf405	-0.034168262
101	0x3ceb2072	0.028701995
102	0xbd4f1463	-0.05055655
103	0x3d05e379	0.032687638
104	0x3d35ee3c	0.04441665
105	0xbd006b3d	-0.03135227
106	0x3d812d43	0.06307461
107	0xbcbe1c09	-0.023206728
108	0xbd517c11	-0.05114371
109	0xbd1bc456	-0.038029037
110	0xbbc749f6	-0.006081815
111	0x3d237796	0.039908968
112	0x3c8181fb	0.01580905
113	0x3d8c653a	0.06855245
114	0x3d3522ba	0.04422257
115	0x3d5d2ed1	0.053999726
116	0xbd50a738	-0.050940722
117	0xbd33c513	-0.043889116
118	0xbd609a11	-0.05483443
119	0x3d20b865	0.039238352
120	0x3c0b9e11	0.008521573
121	0xbc4f4d9d	-0.012652782
122	0x3c55a864	0.013040636
123	0x3b3ca6a8	0.0028785858
124	0x3d752bdd	0.059856284
125	0x3da5fbc3	0.0810466
126	0xbb4d40f1	-0.0031319226
127	0x3d098131	0.033570472
128	0xbcca157b	-0.024668446
129	0xbcc607de	-0.024173673
130	0x3c850862	0.016239349
131	0xbd0f6737	-0.035010543
132	0x3d07e3d9	0.033176277
133	0x3cce6244	0.025193341
134	0xbcccc253	-0.024995005
135	0xbcb5f2a4	-0.022210427
136	0xbc980c0c	-0.018560432
137	0x3cd166c6	0.025561702
138	0xbcc43c3d	-0.023954505
139	0xbc3cdec1	-0.011527718
140	0x3cde82ad	0.02716192
141	0x3d474aa7	0.04865518
142	0x39d1b317	0.0003999702
143	0xbd8045b0	-0.06263292
144	0x3cb2c4d6	0.021822374
145	0x3b2e927e	0.002663761
146	0x3d7aa6d3	0.061194252
147	0x3d2dd82d	0.04244249
148	0x3cd56341	0.026048305
149	0x3d084025	0.033264298
150	0x3d728936	0.059212886
151	0x3d07caf8	0.03315255
152	0xbd413127	-0.047166016
153	0x3c51fa53	0.01281603
154	0xbb8d8f27	-0.0043200436
155	0x3d5e0da4	0.054212227
156	0x3c48d041	0.012256683
157	0x3bc68d0d	0.006059295
158	0xbd20df27	-0.039275315
159	0x3cef91bf	0.029244302
160	0x3cc5ac65	0.024130056
161	0xbc34e283	-0.011040333
162	0x3c8ae967	0.016956998
163	0xbd0191ef	-0.031633314
164	0x3c015056	0.007892689
165	0x3cff195d	0.031140024
166	0x3d381e74	0.044950917
167	0xbc3e87e2	-0.011629077
168	0x3c8cbdfd	0.017180437
169	0xbc66a9ef	-0.014078601
170	0x3d227c24	0.03966917
171	0xbd1fa34a	-0.038974084
172	0xbd6c52ba	-0.05769608
173	0x3d912bf4	0.070884615
174	0x3d89ffe2	0.06738259
175	0x3cc2d42d	0.023782814
176	0x3b45d4cc	0.0030186651
177	0x3ba58cb6	0.0050521744
178	0x3d55d8c5	0.05220868
179	0x3ac31883	0.0014884624
180	0xba7c9c92	-0.0009636368
181	0xbd21421f	-0.0393697
182	0x3b2a0d98	0.0025948044
183	0xbd32078c	-0.04346423
184	0x3cbf38d2	0.023342524
185	0x3bf1ac31	0.007375263
186	0x3c351c03	0.011054042
187	0xbccf8bf2	-0.025335286
188	0xbd34f345	-0.044177312
189	0x3c154f40	0.009113133
190	0x3adf6599	0.0017043828
191	0x3d6937b8	0.056937903
192	0x3d28f965	0.041253466
193	0xbaf5c8ba	-0.0018751838
194	0xbae840a8	-0.0017719464
195	0x3d8ca313	0.068670414
196	0x3d75d351	0.06001598
197	0x3c73a875	0.014871706
198	0x3beedc2f	0.0072894315
199	0xbb85baea	-0.00408112
200	0xbc4f7306	-0.012661701
201	0xbd57627f	-0.052584168
202	0x3d5c0fb4	0.053725913
203	0xbbbedc5b	-0.0058246083
204	0xbc2dfdd2	-0.0106195975
205	0x3d3a7490	0.04552132
206	0x39517380	0.0001997482
207	0x3ccad203	0.024758345
208	0x3b94a4b9	0.004536238
209	0x3d1eaffa	0.038742043
210	0x3d4d6bcb	0.050151628
211	0x3cb819ec	0.022473298
212	0xbc8aec4a	-0.016958375
213	0x3d2c4cea	0.04206554
214	0x3a460a5c	0.0007554644
215	0x3c6a0ffb	0.014286037
216	0xbd5ccdd6	-0.053907238
217	0x3a6f8ef0	0.0009138426
218	0x3d94a797	0.07258528
219	0xbcc88033	-0.024475193
220	0xbced48e7	-0.028965427
221	0xbd204f88	-0.039138347
222	0x3cb6f478	0.022333369
223	0xbbe1b40e	-0.0068879193
224	0x3c43fc19	0.01196196
225	0x3b26b468	0.002543712
226	0xbc535a3c	-0.0128999315
227	0x3d5c4844	0.053779855
228	0x3d0f82a9	0.035036717
229	0x3a6630da	0.0008781083
230	0xbd0da5f8	-0.03458211
231	0xbc21d803	-0.009878161
232	0x3d4bb718	0.04973516
233	0x3d0c6875	0.034279305
234	0x3d1a73dc	0.03770815
235	0x3b07dd1e	0.0020731161
236	0xbd058966	-0.032601736
237	0xbd38c1a8	-0.04510656
238	0xbd095270	-0.033525884
239	0xbc2af5ff	-0.010434627
240	0xbcb4d49d	-0.022074038
241	0xbd40529e	-0.04695379
242	0x3db279aa	0.08714612
243	0x3cce6980	0.02519679
244	0xbd25b6d7	-0.040457573
245	0x3c38ae43	0.011272016
246	0xbd6492ba	-0.05580399
247	0xbc42b726	-0.011884486
248	0x3c0bbf86	0.008529549
249	0x3c31bf8a	0.010848889
250	0xbd6f26eb	-0.058386724
251	0x3cb42462	0.021990005
252	0x3ca54b43	0.02017749
253	0xbd024e76	-0.031813107
254	0x3c20a6ad	0.009805364
255	0xbce89e0e	-0.028395679

liner_3.weight f4 [2, 256]
0	0x3cfab545	0.030604014
1	0xbe2a060d	-0.1660387
2	0xbdd5ccd3	-0.10439458
3	0xbe108e95	-0.1411689
4	0xbd0e4fb6	-0.034743987
5	0xbdf8546e	-0.12125479
6	0xbcc82203	-0.02443028
7	0xbdadb847	-0.08482414
8	0xbdc5bf07	-0.09655576
9	0x3dae0cf3	0.084985636
10	0xbe1c56e4	-0.15267521
11	0x3da03d5a	0.07824202
12	0xbd401017	-0.046890344
13	0x3cc0cbe1	0.023534717
14	0x3d7c3ddf	0.061582442
15	0xbd9ac0ed	-0.07556329
16	0xbbf01940	-0.007327229
17	0xbbc10094	-0.0058899615
18	0xbddc27dd	-0.10749791
19	0xbd720597	-0.059087362
20	0x3d70c610	0.058782637
21	0xbdf45265	-0.11929778
22	0xbd39da98	-0.045374483
23	0x3d8ae9e8	0.06782895
24	0xbddbd0a5	-0.10733155
25	0x3cefbd52	0.02926508
26	0xbd4b3d98	-0.049619287
27	0xbd7406c8	-0.05957678
28	0xbdb41dec	-0.0879477
29	0xbd99f7e6	-0.07517986
30	0x3da49d85	0.08037857
31	0xbd841a1c	-0.064502925
32	0x3d907a52	0.07054581
33	0xbd2ea281	-0.042635445
34	0x3d541cb6	0.051785193
35	0xbdd786a8	-0.105237305
36	0xbd89ed98	-0.067347705
37	0xbc0da730	-0.008645818
38	0xbe3dfed2	-0.18554237
39	0x3c60ce15	0.013721009
40	0xbabc8942	-0.0014384168
41	0x3cf08f05	0.029365072
42	0xbe0b5a09	-0.13608564
43	0xbdbb3644	-0.0914121
44	0x3dc65c51	0.09685577
45	0x3c149367	0.009068347
46	0xbd599c4e	-0.05312758
47	0x3db10144	0.086428195
48	0x3d9ff19a	0.07809754
49	0xbd881c13	-0.0664598
50	0xbe12008d	-0.14258023
51	0xbd05558d	-0.03255229
52	0x3cfe8ac7	0.031072034
53	0xbd4a1cab	-0.049343746
54	0x3dacb414	0.08432785
55	0xbce54cfb	-0.027990809
56	0xbd1c5b3f	-0.038172957
57	0x3d29fe0f	0.041502055
58	0x3d4c4fb4	0.0498807
59	0x3d58d0f2	0.05293364
60	0x3d7641d4	0.060121372
61	0x3ca0ac5d	0.01961344
62	0x3d9c9b80	0.07646847
63	0x3d58099a	0.05274353
64	0xbdc42d34	-0.09578934
65	0x3dcebd14	0.100946575
66	0x3d78cd9b	0.060742956
67	0xbdd13183	-0.10214522
68	0xbdcf5287	-0.10123163
69	0xbe16baeb	-0.14719741
70	0x3cad6279	0.02116512
71	0x3e095ae3	0.13413577
72	0x3d6680be	0.056275122
73	0xbd9865ed	-0.07441316
74	0x3dbaaa74	0.091145426
75	0xbcbeeb5f	-0.023305593
76	0xbd2c872a	-0.04212109
77	0x3d556dbf	0.052106615
78	0x3d59dad6	0.053187214
79	0x3d91495f	0.070940726
80	0xbd3245c8	-0.04352358
81	0x3daf584f	0.085617654
82	0xbddc0c78	-0.10744566
83	0xbe29084a	-0.16507068
84	0xbd002896	-0.031288706
85	0xbe00516d	-0.12531061
86	0xbc838d81	-0.016058685
87	0x3d4a66b7	0.049414363
88	0x3d71af5d	0.05900513
89	0x3c23c398	0.009995364
90	0xbce43d78	-0.027861342
91	0x3d6eb2a0	0.05827582
92	0xbd8167d6	-0.06318633
93	0x3d36c1d1	0.04461843
94	0xbd6f9be4	-0.05849828
95	0xbc10e31d	-0.0088432105
96	0xbdadb4c3	-0.08481743
97	0xbdc168d5	-0.09443823
98	0x3d110eca	0.035414495
99	0x3d97aefc	0.074064225
100	0x3d903795	0.070418514
101	0x3d965d52	0.07342018
102	0x3d48ebc9	0.049052987
103	0xbd511b70	-0.051051557
104	0x3d9ced5f	0.076624624
105	0x3cc640bf	0.024200795
106	0xbdf9a5b2	-0.12189807
107	0xbdcb9b87	-0.09941774
108	0xbe1d527a	-0.15363494
109	0x3db533ed	0.08847795
110	0xbdd85d4b	-0.10564669
111	0xbdd94a17	-0.10609835
112	0x3da47d2a	0.08031686
113	0xbe327261	-0.17426445
114	0xbd7781cb	-0.060426515
115	0xbd935121	-0.071932085
116	0xbdac0cbb	-0.08400866
117	0xbd5361cb	-0.051606935
118	0x3d0ca36c	0.03433554
119	0xbd93eef7	-0.07223313
120	0xbe0638cf	-0.13107608
121	0xbde8c843	-0.11366322
122	0xbd7364d8	-0.059422344
123	0x3d1ded93	0.038556647
124	0xbe0c1828	-0.1368109
125	0xbd44f759	-0.04808745
126	0x3d3c47b1	0.045966808
127	0x3dab0e9a	0.083523944
128	0x3d9b5382	0.07584287
129	0x3d4e7e57	0.050413456
130	0x3d645350	0.055743515
131	0xbdfe794a	-0.12425478
132	0xbe1eaf35	-0.15496524
133	0xbdbe44a3	-0.09290435
134	0x3d7d296c	0.06180708
135	0xbdae2c6e	-0.08504568
136	0x3d8e3c02	0.06945039
137	0xbbd79329	-0.006578822
138	0xbd3f28e1	-0.046669845
139	0xbdf4d9b8	-0.11955589
140	0xbcc6864f	-0.024233965
141	0xbcad1ae6	-0.02113099
142	0x3d6d6971	0.057961885
143	0xbd34e554	-0.044164017
144	0xbcf4d89f	-0.02988845
145	0x3db18269	0.08667452
146	0x3d974f84	0.07388213
147	0xbde3d9e2	-0.11125542
148	0x3e5e3bec	0.21702546
149	0x3dadd298	0.08487433
150	0x3d412d7d	0.04716252
151	0x3e19441c	0.14967388
152	0xbd3eddf4	-0.04659839
153	0xbcee2a1c	-0.029072814
154	0x3d6647fc	0.056220993
155	0x3c798658	0.015229784
156	0xbd353ec2	-0.044249304
157	0x3d5432d2	0.05180628
158	0x3d1a19d8	0.037622303
159	0x3d296b32	0.041361995
160	0x3ce8a9dd	0.02840131
161	0xbe059361	-0.13044502
162	0xbd6d03cb	-0.057864945
163	0x3d8c9bc6	0.06865649
164	0x3d0a968b	0.033834975
165	0x3d8f37d4	0.0699307
166	0xbd7d6adb	-0.061869483
167	0xbd56f88f	-0.052483138
168	0xbd099555	-0.03358968
169	0x3e0e401a	0.1389164
170	0x3d932112	0.07184042
171	0x3e48b43f	0.19600008
172	0x3ca2ee8b	0.019889137
173	0xbd9df6b3	-0.0771307
174	0x3da3b344	0.079931766
175	0x3ce137f7	0.027492506
176	0x3d99384e	0.074814424
177	0xbde4fb34	-0.11180726
178	0xbe263e8c	-0.16234797
179	0x3db5d1d0	0.08877909
180	0xbd78ad40	-0.0607121
181	0x3d631ded	0.05544846
182	0xbe066342	-0.13123801
183	0x3d279190	0.040910304
184	0x3d85da22	0.06535746
185	0xbd80cef8	-0.06289476
186	0x3d06eaf1	0.0329389
187	0xbdf22ad6	-0.118245766
188	0x3dcdb9ed	0.10045228
189	0x3d5614ea	0.05226604
190	0x3d49002f	0.04907244
191	0xbdd5c7c6	-0.104384944
192	0x3d6d8055	0.057983715
193	0xbd7cd8d7	-0.061730232
194	0x3c9daa37	0.019246204
195	0x3d743e9c	0.05963002
196	0x3d9fa49b	0.07795068
197	0x3d0d4ef3	0.03449912
198	0xbdce50fe	-0.10074042
199	0xbd8cfa8d	-0.06883726
200	0x3d5f9b90	0.054591715
201	0x3c561f5b	0.013068999
202	0xbd9df0af	-0.077119224
203	0x3d84e0e2	0.064882055
204	0x3d956315	0.07294289
205	0xbd9a04f2	-0.075204745
206	0xbd8c4e11	-0.068508275
207	0xbd28b3ed	-0.041187216
208	0xbd6a8d15	-0.057263453
209	0xbdc3f567	-0.09568291
210	0x3dc65581	0.09684277
211	0xbd3d008a	-0.046143092
212	0xbddb29ef	-0.107013576
213	0x3d03cc5a	0.032177307
214	0xbde4465e	-0.11146234
215	0xbda1ed14	-0.07906547
216	0xbc43e52e	-0.011956496
217	0x3d99f131	0.07516707
218	0xbbf4ab96	-0.0074667437
219	0xbd54a998	-0.05191955
220	0xbcc83ba8	-0.024442509
221	0x3db61560	0.08890796
222	0x3d7b4fa1	0.061355237
223	0xbd52a33e	-0.05142521
224	0xbd7d0edd	-0.061781753
225	0xbcc44673	-0.023959374
226	0xbde7e010	-0.113220334
227	0x3dcbe2e7	0.099553876
228	0x3d292d68	0.04130307
229	0xbdac16aa	-0.0840276
230	0x3dc11252	0.094273224
231	0x3d7a5851	0.06111938
232	0x3d5afa56	0.053461395
233	0xbdd24f28	-0.10269004
234	0x3d647cc8	0.055783063
235	0x3dc44b40	0.09584665
236	0xbdce808b	-0.100831114
237	0xbe063b69	-0.131086
238	0xbd85a381	-0.065253265
239	0x3c8fe32e	0.017564382
240	0x3d71b076	0.059006177
241	0x3d864d45	0.06557707
242	0xbd5bdf9a	-0.05368004
243	0x3d0e58d3	0.034752678
244	0xbd0e0bab	-0.034679096
245	0x3d5b2de8	0.053510576
246	0xbd923edd	-0.071408965
247	0xbd248e50	-0.040174782
248	0xbd9009a4	-0.07033089
249	0x3daf6a4b	0.08565196
250	0xbda099d3	-0.0784184
251	0xbd719ff9	-0.058990452
252	0x3e04ddef	0.12975286
253	0x3e04d8dc	0.1297335
254	0xbd6639f7	-0.056207623
255	0x3cd56fc2	0.026054267

liner_3.bias f4 [2]
0	0x3d539d65	0.051663775
1	0xbcb3ff6c	-0.02197238
